vedhashree.pt (torch, 3238 bytes, 6 tensors)

fc1.weight f4 [10, 4]
00000000: d442 1f3d 3d6f 1c3d a558 dbbe 29b4 9ebe
00000010: fe50 fcbe 300d ecbe ae5c fc3e 9083 d33e
00000020: 16df ce3d 2c49 023f f0f9 86be 3704 c1be
00000030: 96b0 ce3e 6485 e2bd 2b18 303e f9cb c23e
00000040: 6ee7 863e 8e95 92be 6002 46be b842 ecbe
00000050: b02c 0cbc 2b99 5abe 485b ba3d 156a ab3c
00000060: 1ca6 d63e a184 c13d 9e56 3a3e 7bbc a83d
00000070: 4165 f23e 9c19 5ebe 35df 043f 02f8 f13e
00000080: e62d 53be fd50 a03e 3e39 e23e 2e66 9ebe
00000090: 32d4 84be 0fb1 843e 94ef bc3e ec07 e03d
0.03888209 0.038192023 -0.42841068 -0.30996826 -0.49280542 -0.4610381 0.4928946 0.41311312
0.10101144 0.508929 -0.26362562 -0.37698528 0.403691 -0.110605985 0.1719672 0.38046244
0.26348442 -0.28629726 -0.19336843 -0.46144652 -0.008555576 -0.21347491 0.09099442 0.020924607
0.41923606 0.09449125 0.18197104 0.08239075 0.47342876 -0.21689457 0.51903087 0.47259527
-0.20622978 0.3131179 0.44184297 -0.30937332 -0.25943142 0.25916335 0.36901534 0.10939011

fc1.bias f4 [10]
00000000: 40e3 073e 629c bd3e 8d3d e73e 4f93 c1be
00000010: a49a 52be e27a c23e 5753 973e 3f7a 74be
00000020: 9844 21be 4054 d23e
0.13270283 0.37033373 0.45164147 -0.378077 -0.20566803 0.37984377 0.2955577 -0.23874758
-0.15748823 0.41079903

fc2.weight f4 [11, 10]
00000000: 205b 37be 704e 503e 78d5 973e 95b6 b0be
00000010: bc9f a1be 5cb1 893d f2d5 063e ea66 673e
00000020: 09d0 38bc 048d 2b3e 8f21 66be 9e4a 413e
00000030: e95f a1be b955 473e 726d 0c3d 868c 3c3e
00000040: 19cc e83d 86a7 6bbe 903f 02bc 0544 ec3c
00000050: ce34 3a3d 8ec2 8dbe 4e5e 76be 06b3 b5bd
00000060: ff02 30be 1b6d a43e 0198 5b3e 298e 503e
00000070: 70c9 bdbc 39d5 42be 7a0b 5f3d b998 953e
00000080: 9707 793e ab1f 7bbe 0bab e5bc 5059 cebd
00000090: c866 8d3e bd45 923d dec5 95be 40a3 b1be
000000a0: 9e0e ae3d d314 1e3e c504 863d 905e 9b3e
000000b0: d51f 8f3e f386 a5bc 1061 a5be ad74 843e
000000c0: 37ad d33e 5dad 06be e302 23be 99a0 8a3e
000000d0: d1e9 7c3e 41c4 f7bc 2ad4 38be 6975 6d3d
000000e0: 6594 9ebe 18cf ffbd f69e 27bd c15a 9abd
000000f0: 696d 053e b143 db3b 3efd 84be 9370 2abd
00000100: 7faa f03c c07d 3f3e 10a8 ec3b 7d83 f7bd
00000110: b59a e63d 2f4e 0a3e f1f9 233d fbe1 2dbe
00000120: 2cda b7bc c7c7 723d 12c6 353e 7e35 27bd
00000130: 0485 33bd 858a 583e f412 f73b 8df0 543e
00000140: 7220 02bd b333 8e3e c05f e13d 1fda d0bd
00000150: 7890 e03d 3938 61bd 7cb9 763e b52e c4bd
00000160: 739d 273e 92d2 01be 7c92 e33c 7208 d23d
00000170: 553f 9ebe 4b28 423d 1117 303e 18b1 e43d
00000180: 1f34 b6bb 58e6 3cbd 3002 b13d 8bf9 a83d
00000190: 84fe 1bbe 25c9 fc3d cbcd 99be e5e3 9a3d
000001a0: 49ac debd 7327 b3bd aedd 4fbe 7fa0 a43e
000001b0: dd6e ca3d c7f7 aa3d
-0.17905855 0.20342422 0.2965505 -0.345143 -0.3156718 0.06723282 0.13167551 0.22597852
-0.011280068 0.16753012 -0.22473739 0.1887612 -0.31518486 0.19466294 0.034284063 0.1841298
0.113670535 -0.23013124 -0.007949725 0.028841028 0.045460515 -0.27687496 -0.24059412 -0.08872037
-0.17188643 0.3211449 0.21444704 0.2036673 -0.023167342 -0.1902665 0.054454304 0.2921808
0.24319302 -0.24523799 -0.028035661 -0.10075629 0.27617478 0.07142208 -0.29252523 -0.34694862
0.08498882 0.15437631 0.065438785 0.30345583 0.27953973 -0.02020595 -0.32300615 0.25870267
0.4134309 -0.1315207 -0.1591907 0.2707565 0.24698569 -0.030244948 -0.18049684 0.0579733
-0.3097259 -0.12490672 -0.04092308 -0.07536841 0.13030018 0.006691419 -0.25974458 -0.041611265
0.029378174 0.18700314 0.007222183 -0.12085626 0.11259977 0.13506387 0.040033285 -0.16980736
-0.0224429 0.059272554 0.17751339 -0.0408225 -0.043828025 0.21146591 0.007540101 0.20794888
-0.031769224 0.27773818 0.11004591 -0.10197853 0.10965055 -0.05498526 0.24094194 -0.09579221
0.16368656 -0.12677982 0.02777981 0.10255517 -0.30907694 0.047401708 0.17196299 0.111665905
-0.0055604125 -0.04611811 0.08642995 0.082507215 -0.15233809 0.12343053 -0.3003982 0.07562999
-0.108727045 -0.08747759 -0.20299408 0.321537 0.09884427 0.08348041

fc2.bias f4 [11]
00000000: 4bbf e7bb 2da0 11be 50a8 89be e168 1f3e
00000010: 031d abbe 2e93 0abe b6b6 173e 933e 353e
00000020: f0ff 2abd 8744 a6be 4732 ae3e
-0.0070723644 -0.14221258 -0.26886225 0.15567352 -0.33420572 -0.13532707 0.14815792 0.17699651
-0.041747987 -0.32474157 0.34022734

out.weight f4 [3, 11]
00000000: 3e6e 1d3e c3a2 533e 815c 31be d4df 7a3d
00000010: 7171 c3bd 1c20 973d ed25 bfba c49f 52be
00000020: 0f2e 983e 1e15 043e bc31 0cbe 6f57 5fbe
00000030: 9f8c 23be a105 08bc 2ae0 25be 4ba9 253e
00000040: 2c62 4ebd b5ca c03d 2d6c 04be 6811 84bd
00000050: abe5 fd3d 136a c73e 4cd6 8ebe 2c6e 2d3d
00000060: 2d9c 8c3e ea03 22be 278a 4a3e 7ac3 403e
00000070: 1188 94be 27ea 3e3e b60a a4be ae2d 8b3d
00000080: ab4a 943e
0.15374085 0.20667557 -0.17320444 0.061248615 -0.095431216 0.07379171 -0.0014583446 -0.20568758
0.2972264 0.1289868 -0.13690847 -0.21810697 -0.15971611 -0.008302123 -0.16198793 0.16177861
-0.050386593 0.09413663 -0.12931891 -0.064486325 0.12397321 0.38948116 -0.2789787 0.042341396
0.27462903 -0.15821806 0.19779263 0.18824568 -0.2901006 0.1864401 -0.32039422 0.06795822
0.28963217

out.bias f4 [3]
00000000: 13e5 c3bd d873 4b3d 515a bebe
-0.09565177 0.049671024 -0.3717828
